{"format": "layers-model", "generatedBy": "keras v2.8.0", "convertedBy": "TensorFlow.js Converter v4.6.0", "modelTopology": {"keras_version": "2.8.0", "backend": "tensorflow", "model_config": {"class_name": "Functional", "config": {"name": "mobilenetv3_tfjs_compatible", "layers": [{"class_name": "InputLayer", "config": {"batch_input_shape": [null, 224, 224, 3], "dtype": "float32", "sparse": false, "ragged": false, "name": "input_image"}, "name": "input_image", "inbound_nodes": []}, {"class_name": "Rescaling", "config": {"name": "rescale", "trainable": true, "dtype": "float32", "scale": 0.00784313725490196, "offset": -1}, "name": "rescale", "inbound_nodes": [[["input_image", 0, 0, {}]]]}, {"class_name": "Functional", "config": {"name": "MobilenetV3small", "layers": [{"class_name": "InputLayer", "config": {"batch_input_shape": [null, 224, 224, 3], "dtype": "float32", "sparse": false, "ragged": false, "name": "input_1"}, "name": "input_1", "inbound_nodes": []}, {"class_name": "Rescaling", "config": {"name": "rescaling", "trainable": false, "dtype": "float32", "scale": 0.00784313725490196, "offset": -1.0}, "name": "rescaling", "inbound_nodes": [[["input_1", 0, 0, {}]]]}, {"class_name": "Conv2D", "config": {"name": "Conv", "trainable": false, "dtype": "float32", "filters": 16, "kernel_size": [3, 3], "strides": [2, 2], "padding": "same", "data_format": "channels_last", "dilation_rate": [1, 1], "groups": 1, "activation": "linear", "use_bias": false, "kernel_initializer": {"class_name": "GlorotUniform", "config": {"seed": null}}, "bias_initializer": {"class_name": "Zeros", "config": {}}, "kernel_regularizer": null, "bias_regularizer": null, "activity_regularizer": null, "kernel_constraint": null, "bias_constraint": null}, "name": "Conv", "inbound_nodes": [[["rescaling", 0, 0, {}]]]}, {"class_name": "BatchNormalization", "config": {"name": "Conv/BatchNorm", "trainable": false, "dtype": "float32", "axis": [3], "momentum": 0.999, "epsilon": 0.001, "center": true, "scale": true, "beta_initializer": {"class_name": "Zeros", "config": {}}, "gamma_initializer": {"class_name": "Ones", "config": {}}, "moving_mean_initializer": {"class_name": "Zeros", "config": {}}, "moving_variance_initializer": {"class_name": "Ones", "config": {}}, "beta_regularizer": null, "gamma_regularizer": null, "beta_constraint": null, "gamma_constraint": null}, "name": "Conv/BatchNorm", "inbound_nodes": [[["Conv", 0, 0, {}]]]}, {"class_name": "ReLU", "config": {"name": "re_lu", "trainable": false, "dtype": "float32", "max_value": null, "negative_slope": 0.0, "threshold": 0.0}, "name": "re_lu", "inbound_nodes": [[["Conv/BatchNorm", 0, 0, {}]]]}, {"class_name": "ZeroPadding2D", "config": {"name": "expanded_conv/depthwise/pad", "trainable": false, "dtype": "float32", "padding": [[0, 1], [0, 1]], "data_format": "channels_last"}, "name": "expanded_conv/depthwise/pad", "inbound_nodes": [[["re_lu", 0, 0, {}]]]}, {"class_name": "DepthwiseConv2D", "config": {"name": "expanded_conv/depthwise", "trainable": false, "dtype": "float32", "kernel_size": [3, 3], "strides": [2, 2], "padding": "valid", "data_format": "channels_last", "dilation_rate": [1, 1], "groups": 1, "activation": "linear", "use_bias": false, "bias_initializer": {"class_name": "Zeros", "config": {}}, "bias_regularizer": null, "activity_regularizer": null, "bias_constraint": null, "depth_multiplier": 1, "depthwise_initializer": {"class_name": "GlorotUniform", "config": {"seed": null}}, "depthwise_regularizer": null, "depthwise_constraint": null}, "name": "expanded_conv/depthwise", "inbound_nodes": [[["expanded_conv/depthwise/pad", 0, 0, {}]]]}, {"class_name": "BatchNormalization", "config": {"name": "expanded_conv/depthwise/BatchNorm", "trainable": false, "dtype": "float32", "axis": [3], "momentum": 0.999, "epsilon": 0.001, "center": true, "scale": true, "beta_initializer": {"class_name": "Zeros", "config": {}}, "gamma_initializer": {"class_name": "Ones", "config": {}}, "moving_mean_initializer": {"class_name": "Zeros", "config": {}}, "moving_variance_initializer": {"class_name": "Ones", "config": {}}, "beta_regularizer": null, "gamma_regularizer": null, "beta_constraint": null, "gamma_constraint": null}, "name": "expanded_conv/depthwise/BatchNorm", "inbound_nodes": [[["expanded_conv/depthwise", 0, 0, {}]]]}, {"class_name": "ReLU", "config": {"name": "re_lu_1", "trainable": false, "dtype": "float32", "max_value": null, "negative_slope": 0.0, "threshold": 0.0}, "name": "re_lu_1", "inbound_nodes": [[["expanded_conv/depthwise/BatchNorm", 0, 0, {}]]]}, {"class_name": "Conv2D", "config": {"name": "expanded_conv/project", "trainable": false, "dtype": "float32", "filters": 16, "kernel_size": [1, 1], "strides": [1, 1], "padding": "same", "data_format": "channels_last", "dilation_rate": [1, 1], "groups": 1, "activation": "linear", "use_bias": false, "kernel_initializer": {"class_name": "GlorotUniform", "config": {"seed": null}}, "bias_initializer": {"class_name": "Zeros", "config": {}}, "kernel_regularizer": null, "bias_regularizer": null, "activity_regularizer": null, "kernel_constraint": null, "bias_constraint": null}, "name": "expanded_conv/project", "inbound_nodes": [[["re_lu_1", 0, 0, {}]]]}, {"class_name": "BatchNormalization", "config": {"name": "expanded_conv/project/BatchNorm", "trainable": false, "dtype": "float32", "axis": [3], "momentum": 0.999, "epsilon": 0.001, "center": true, "scale": true, "beta_initializer": {"class_name": "Zeros", "config": {}}, "gamma_initializer": {"class_name": "Ones", "config": {}}, "moving_mean_initializer": {"class_name": "Zeros", "config": {}}, "moving_variance_initializer": {"class_name": "Ones", "config": {}}, "beta_regularizer": null, "gamma_regularizer": null, "beta_constraint": null, "gamma_constraint": null}, "name": "expanded_conv/project/BatchNorm", "inbound_nodes": [[["expanded_conv/project", 0, 0, {}]]]}, {"class_name": "Conv2D", "config": {"name": "expanded_conv_1/expand", "trainable": false, "dtype": "float32", "filters": 72, "kernel_size": [1, 1], "strides": [1, 1], "padding": "same", "data_format": "channels_last", "dilation_rate": [1, 1], "groups": 1, "activation": "linear", "use_bias": false, "kernel_initializer": {"class_name": "GlorotUniform", "config": {"seed": null}}, "bias_initializer": {"class_name": "Zeros", "config": {}}, "kernel_regularizer": null, "bias_regularizer": null, "activity_regularizer": null, "kernel_constraint": null, "bias_constraint": null}, "name": "expanded_conv_1/expand", "inbound_nodes": [[["expanded_conv/project/BatchNorm", 0, 0, {}]]]}, {"class_name": "BatchNormalization", "config": {"name": "expanded_conv_1/expand/BatchNorm", "trainable": false, "dtype": "float32", "axis": [3], "momentum": 0.999, "epsilon": 0.001, "center": true, "scale": true, "beta_initializer": {"class_name": "Zeros", "config": {}}, "gamma_initializer": {"class_name": "Ones", "config": {}}, "moving_mean_initializer": {"class_name": "Zeros", "config": {}}, "moving_variance_initializer": {"class_name": "Ones", "config": {}}, "beta_regularizer": null, "gamma_regularizer": null, "beta_constraint": null, "gamma_constraint": null}, "name": "expanded_conv_1/expand/BatchNorm", "inbound_nodes": [[["expanded_conv_1/expand", 0, 0, {}]]]}, {"class_name": "ReLU", "config": {"name": "re_lu_2", "trainable": false, "dtype": "float32", "max_value": null, "negative_slope": 0.0, "threshold": 0.0}, "name": "re_lu_2", "inbound_nodes": [[["expanded_conv_1/expand/BatchNorm", 0, 0, {}]]]}, {"class_name": "ZeroPadding2D", "config": {"name": "expanded_conv_1/depthwise/pad", "trainable": false, "dtype": "float32", "padding": [[0, 1], [0, 1]], "data_format": "channels_last"}, "name": "expanded_conv_1/depthwise/pad", "inbound_nodes": [[["re_lu_2", 0, 0, {}]]]}, {"class_name": "DepthwiseConv2D", "config": {"name": "expanded_conv_1/depthwise", "trainable": false, "dtype": "float32", "kernel_size": [3, 3], "strides": [2, 2], "padding": "valid", "data_format": "channels_last", "dilation_rate": [1, 1], "groups": 1, "activation": "linear", "use_bias": false, "bias_initializer": {"class_name": "Zeros", "config": {}}, "bias_regularizer": null, "activity_regularizer": null, "bias_constraint": null, "depth_multiplier": 1, "depthwise_initializer": {"class_name": "GlorotUniform", "config": {"seed": null}}, "depthwise_regularizer": null, "depthwise_constraint": null}, "name": "expanded_conv_1/depthwise", "inbound_nodes": [[["expanded_conv_1/depthwise/pad", 0, 0, {}]]]}, {"class_name": "BatchNormalization", "config": {"name": "expanded_conv_1/depthwise/BatchNorm", "trainable": false, "dtype": "float32", "axis": [3], "momentum": 0.999, "epsilon": 0.001, "center": true, "scale": true, "beta_initializer": {"class_name": "Zeros", "config": {}}, "gamma_initializer": {"class_name": "Ones", "config": {}}, "moving_mean_initializer": {"class_name": "Zeros", "config": {}}, "moving_variance_initializer": {"class_name": "Ones", "config": {}}, "beta_regularizer": null, "gamma_regularizer": null, "beta_constraint": null, "gamma_constraint": null}, "name": "expanded_conv_1/depthwise/BatchNorm", "inbound_nodes": [[["expanded_conv_1/depthwise", 0, 0, {}]]]}, {"class_name": "ReLU", "config": {"name": "re_lu_3", "trainable": false, "dtype": "float32", "max_value": null, "negative_slope": 0.0, "threshold": 0.0}, "name": "re_lu_3", "inbound_nodes": [[["expanded_conv_1/depthwise/BatchNorm", 0, 0, {}]]]}, {"class_name": "Conv2D", "config": {"name": "expanded_conv_1/project", "trainable": false, "dtype": "float32", "filters": 24, "kernel_size": [1, 1], "strides": [1, 1], "padding": "same", "data_format": "channels_last", "dilation_rate": [1, 1], "groups": 1, "activation": "linear", "use_bias": false, "kernel_initializer": {"class_name": "GlorotUniform", "config": {"seed": null}}, "bias_initializer": {"class_name": "Zeros", "config": {}}, "kernel_regularizer": null, "bias_regularizer": null, "activity_regularizer": null, "kernel_constraint": null, "bias_constraint": null}, "name": "expanded_conv_1/project", "inbound_nodes": [[["re_lu_3", 0, 0, {}]]]}, {"class_name": "BatchNormalization", "config": {"name": "expanded_conv_1/project/BatchNorm", "trainable": false, "dtype": "float32", "axis": [3], "momentum": 0.999, "epsilon": 0.001, "center": true, "scale": true, "beta_initializer": {"class_name": "Zeros", "config": {}}, "gamma_initializer": {"class_name": "Ones", "config": {}}, "moving_mean_initializer": {"class_name": "Zeros", "config": {}}, "moving_variance_initializer": {"class_name": "Ones", "config": {}}, "beta_regularizer": null, "gamma_regularizer": null, "beta_constraint": null, "gamma_constraint": null}, "name": "expanded_conv_1/project/BatchNorm", "inbound_nodes": [[["expanded_conv_1/project", 0, 0, {}]]]}, {"class_name": "Conv2D", "config": {"name": "expanded_conv_2/expand", "trainable": false, "dtype": "float32", "filters": 88, "kernel_size": [1, 1], "strides": [1, 1], "padding": "same", "data_format": "channels_last", "dilation_rate": [1, 1], "groups": 1, "activation": "linear", "use_bias": false, "kernel_initializer": {"class_name": "GlorotUniform", "config": {"seed": null}}, "bias_initializer": {"class_name": "Zeros", "config": {}}, "kernel_regularizer": null, "bias_regularizer": null, "activity_regularizer": null, "kernel_constraint": null, "bias_constraint": null}, "name": "expanded_conv_2/expand", "inbound_nodes": [[["expanded_conv_1/project/BatchNorm", 0, 0, {}]]]}, {"class_name": "BatchNormalization", "config": {"name": "expanded_conv_2/expand/BatchNorm", "trainable": false, "dtype": "float32", "axis": [3], "momentum": 0.999, "epsilon": 0.001, "center": true, "scale": true, "beta_initializer": {"class_name": "Zeros", "config": {}}, "gamma_initializer": {"class_name": "Ones", "config": {}}, "moving_mean_initializer": {"class_name": "Zeros", "config": {}}, "moving_variance_initializer": {"class_name": "Ones", "config": {}}, "beta_regularizer": null, "gamma_regularizer": null, "beta_constraint": null, "gamma_constraint": null}, "name": "expanded_conv_2/expand/BatchNorm", "inbound_nodes": [[["expanded_conv_2/expand", 0, 0, {}]]]}, {"class_name": "ReLU", "config": {"name": "re_lu_4", "trainable": false, "dtype": "float32", "max_value": null, "negative_slope": 0.0, "threshold": 0.0}, "name": "re_lu_4", "inbound_nodes": [[["expanded_conv_2/expand/BatchNorm", 0, 0, {}]]]}, {"class_name": "DepthwiseConv2D", "config": {"name": "expanded_conv_2/depthwise", "trainable": false, "dtype": "float32", "kernel_size": [3, 3], "strides": [1, 1], "padding": "same", "data_format": "channels_last", "dilation_rate": [1, 1], "groups": 1, "activation": "linear", "use_bias": false, "bias_initializer": {"class_name": "Zeros", "config": {}}, "bias_regularizer": null, "activity_regularizer": null, "bias_constraint": null, "depth_multiplier": 1, "depthwise_initializer": {"class_name": "GlorotUniform", "config": {"seed": null}}, "depthwise_regularizer": null, "depthwise_constraint": null}, "name": "expanded_conv_2/depthwise", "inbound_nodes": [[["re_lu_4", 0, 0, {}]]]}, {"class_name": "BatchNormalization", "config": {"name": "expanded_conv_2/depthwise/BatchNorm", "trainable": false, "dtype": "float32", "axis": [3], "momentum": 0.999, "epsilon": 0.001, "center": true, "scale": true, "beta_initializer": {"class_name": "Zeros", "config": {}}, "gamma_initializer": {"class_name": "Ones", "config": {}}, "moving_mean_initializer": {"class_name": "Zeros", "config": {}}, "moving_variance_initializer": {"class_name": "Ones", "config": {}}, "beta_regularizer": null, "gamma_regularizer": null, "beta_constraint": null, "gamma_constraint": null}, "name": "expanded_conv_2/depthwise/BatchNorm", "inbound_nodes": [[["expanded_conv_2/depthwise", 0, 0, {}]]]}, {"class_name": "ReLU", "config": {"name": "re_lu_5", "trainable": false, "dtype": "float32", "max_value": null, "negative_slope": 0.0, "threshold": 0.0}, "name": "re_lu_5", "inbound_nodes": [[["expanded_conv_2/depthwise/BatchNorm", 0, 0, {}]]]}, {"class_name": "Conv2D", "config": {"name": "expanded_conv_2/project", "trainable": false, "dtype": "float32", "filters": 24, "kernel_size": [1, 1], "strides": [1, 1], "padding": "same", "data_format": "channels_last", "dilation_rate": [1, 1], "groups": 1, "activation": "linear", "use_bias": false, "kernel_initializer": {"class_name": "GlorotUniform", "config": {"seed": null}}, "bias_initializer": {"class_name": "Zeros", "config": {}}, "kernel_regularizer": null, "bias_regularizer": null, "activity_regularizer": null, "kernel_constraint": null, "bias_constraint": null}, "name": "expanded_conv_2/project", "inbound_nodes": [[["re_lu_5", 0, 0, {}]]]}, {"class_name": "BatchNormalization", "config": {"name": "expanded_conv_2/project/BatchNorm", "trainable": false, "dtype": "float32", "axis": [3], "momentum": 0.999, "epsilon": 0.001, "center": true, "scale": true, "beta_initializer": {"class_name": "Zeros", "config": {}}, "gamma_initializer": {"class_name": "Ones", "config": {}}, "moving_mean_initializer": {"class_name": "Zeros", "config": {}}, "moving_variance_initializer": {"class_name": "Ones", "config": {}}, "beta_regularizer": null, "gamma_regularizer": null, "beta_constraint": null, "gamma_constraint": null}, "name": "expanded_conv_2/project/BatchNorm", "inbound_nodes": [[["expanded_conv_2/project", 0, 0, {}]]]}, {"class_name": "Add", "config": {"name": "expanded_conv_2/Add", "trainable": false, "dtype": "float32"}, "name": "expanded_conv_2/Add", "inbound_nodes": [[["expanded_conv_1/project/BatchNorm", 0, 0, {}], ["expanded_conv_2/project/BatchNorm", 0, 0, {}]]]}, {"class_name": "Conv2D", "config": {"name": "expanded_conv_3/expand", "trainable": false, "dtype": "float32", "filters": 96, "kernel_size": [1, 1], "strides": [1, 1], "padding": "same", "data_format": "channels_last", "dilation_rate": [1, 1], "groups": 1, "activation": "linear", "use_bias": false, "kernel_initializer": {"class_name": "GlorotUniform", "config": {"seed": null}}, "bias_initializer": {"class_name": "Zeros", "config": {}}, "kernel_regularizer": null, "bias_regularizer": null, "activity_regularizer": null, "kernel_constraint": null, "bias_constraint": null}, "name": "expanded_conv_3/expand", "inbound_nodes": [[["expanded_conv_2/Add", 0, 0, {}]]]}, {"class_name": "BatchNormalization", "config": {"name": "expanded_conv_3/expand/BatchNorm", "trainable": false, "dtype": "float32", "axis": [3], "momentum": 0.999, "epsilon": 0.001, "center": true, "scale": true, "beta_initializer": {"class_name": "Zeros", "config": {}}, "gamma_initializer": {"class_name": "Ones", "config": {}}, "moving_mean_initializer": {"class_name": "Zeros", "config": {}}, "moving_variance_initializer": {"class_name": "Ones", "config": {}}, "beta_regularizer": null, "gamma_regularizer": null, "beta_constraint": null, "gamma_constraint": null}, "name": "expanded_conv_3/expand/BatchNorm", "inbound_nodes": [[["expanded_conv_3/expand", 0, 0, {}]]]}, {"class_name": "ReLU", "config": {"name": "re_lu_6", "trainable": false, "dtype": "float32", "max_value": null, "negative_slope": 0.0, "threshold": 0.0}, "name": "re_lu_6", "inbound_nodes": [[["expanded_conv_3/expand/BatchNorm", 0, 0, {}]]]}, {"class_name": "ZeroPadding2D", "config": {"name": "expanded_conv_3/depthwise/pad", "trainable": false, "dtype": "float32", "padding": [[0, 1], [0, 1]], "data_format": "channels_last"}, "name": "expanded_conv_3/depthwise/pad", "inbound_nodes": [[["re_lu_6", 0, 0, {}]]]}, {"class_name": "DepthwiseConv2D", "config": {"name": "expanded_conv_3/depthwise", "trainable": false, "dtype": "float32", "kernel_size": [3, 3], "strides": [2, 2], "padding": "valid", "data_format": "channels_last", "dilation_rate": [1, 1], "groups": 1, "activation": "linear", "use_bias": false, "bias_initializer": {"class_name": "Zeros", "config": {}}, "bias_regularizer": null, "activity_regularizer": null, "bias_constraint": null, "depth_multiplier": 1, "depthwise_initializer": {"class_name": "GlorotUniform", "config": {"seed": null}}, "depthwise_regularizer": null, "depthwise_constraint": null}, "name": "expanded_conv_3/depthwise", "inbound_nodes": [[["expanded_conv_3/depthwise/pad", 0, 0, {}]]]}, {"class_name": "BatchNormalization", "config": {"name": "expanded_conv_3/depthwise/BatchNorm", "trainable": false, "dtype": "float32", "axis": [3], "momentum": 0.999, "epsilon": 0.001, "center": true, "scale": true, "beta_initializer": {"class_name": "Zeros", "config": {}}, "gamma_initializer": {"class_name": "Ones", "config": {}}, "moving_mean_initializer": {"class_name": "Zeros", "config": {}}, "moving_variance_initializer": {"class_name": "Ones", "config": {}}, "beta_regularizer": null, "gamma_regularizer": null, "beta_constraint": null, "gamma_constraint": null}, "name": "expanded_conv_3/depthwise/BatchNorm", "inbound_nodes": [[["expanded_conv_3/depthwise", 0, 0, {}]]]}, {"class_name": "ReLU", "config": {"name": "re_lu_7", "trainable": false, "dtype": "float32", "max_value": null, "negative_slope": 0.0, "threshold": 0.0}, "name": "re_lu_7", "inbound_nodes": [[["expanded_conv_3/depthwise/BatchNorm", 0, 0, {}]]]}, {"class_name": "Conv2D", "config": {"name": "expanded_conv_3/project", "trainable": false, "dtype": "float32", "filters": 40, "kernel_size": [1, 1], "strides": [1, 1], "padding": "same", "data_format": "channels_last", "dilation_rate": [1, 1], "groups": 1, "activation": "linear", "use_bias": false, "kernel_initializer": {"class_name": "GlorotUniform", "config": {"seed": null}}, "bias_initializer": {"class_name": "Zeros", "config": {}}, "kernel_regularizer": null, "bias_regularizer": null, "activity_regularizer": null, "kernel_constraint": null, "bias_constraint": null}, "name": "expanded_conv_3/project", "inbound_nodes": [[["re_lu_7", 0, 0, {}]]]}, {"class_name": "BatchNormalization", "config": {"name": "expanded_conv_3/project/BatchNorm", "trainable": false, "dtype": "float32", "axis": [3], "momentum": 0.999, "epsilon": 0.001, "center": true, "scale": true, "beta_initializer": {"class_name": "Zeros", "config": {}}, "gamma_initializer": {"class_name": "Ones", "config": {}}, "moving_mean_initializer": {"class_name": "Zeros", "config": {}}, "moving_variance_initializer": {"class_name": "Ones", "config": {}}, "beta_regularizer": null, "gamma_regularizer": null, "beta_constraint": null, "gamma_constraint": null}, "name": "expanded_conv_3/project/BatchNorm", "inbound_nodes": [[["expanded_conv_3/project", 0, 0, {}]]]}, {"class_name": "Conv2D", "config": {"name": "expanded_conv_4/expand", "trainable": false, "dtype": "float32", "filters": 240, "kernel_size": [1, 1], "strides": [1, 1], "padding": "same", "data_format": "channels_last", "dilation_rate": [1, 1], "groups": 1, "activation": "linear", "use_bias": false, "kernel_initializer": {"class_name": "GlorotUniform", "config": {"seed": null}}, "bias_initializer": {"class_name": "Zeros", "config": {}}, "kernel_regularizer": null, "bias_regularizer": null, "activity_regularizer": null, "kernel_constraint": null, "bias_constraint": null}, "name": "expanded_conv_4/expand", "inbound_nodes": [[["expanded_conv_3/project/BatchNorm", 0, 0, {}]]]}, {"class_name": "BatchNormalization", "config": {"name": "expanded_conv_4/expand/BatchNorm", "trainable": false, "dtype": "float32", "axis": [3], "momentum": 0.999, "epsilon": 0.001, "center": true, "scale": true, "beta_initializer": {"class_name": "Zeros", "config": {}}, "gamma_initializer": {"class_name": "Ones", "config": {}}, "moving_mean_initializer": {"class_name": "Zeros", "config": {}}, "moving_variance_initializer": {"class_name": "Ones", "config": {}}, "beta_regularizer": null, "gamma_regularizer": null, "beta_constraint": null, "gamma_constraint": null}, "name": "expanded_conv_4/expand/BatchNorm", "inbound_nodes": [[["expanded_conv_4/expand", 0, 0, {}]]]}, {"class_name": "ReLU", "config": {"name": "re_lu_8", "trainable": false, "dtype": "float32", "max_value": null, "negative_slope": 0.0, "threshold": 0.0}, "name": "re_lu_8", "inbound_nodes": [[["expanded_conv_4/expand/BatchNorm", 0, 0, {}]]]}, {"class_name": "DepthwiseConv2D", "config": {"name": "expanded_conv_4/depthwise", "trainable": false, "dtype": "float32", "kernel_size": [3, 3], "strides": [1, 1], "padding": "same", "data_format": "channels_last", "dilation_rate": [1, 1], "groups": 1, "activation": "linear", "use_bias": false, "bias_initializer": {"class_name": "Zeros", "config": {}}, "bias_regularizer": null, "activity_regularizer": null, "bias_constraint": null, "depth_multiplier": 1, "depthwise_initializer": {"class_name": "GlorotUniform", "config": {"seed": null}}, "depthwise_regularizer": null, "depthwise_constraint": null}, "name": "expanded_conv_4/depthwise", "inbound_nodes": [[["re_lu_8", 0, 0, {}]]]}, {"class_name": "BatchNormalization", "config": {"name": "expanded_conv_4/depthwise/BatchNorm", "trainable": false, "dtype": "float32", "axis": [3], "momentum": 0.999, "epsilon": 0.001, "center": true, "scale": true, "beta_initializer": {"class_name": "Zeros", "config": {}}, "gamma_initializer": {"class_name": "Ones", "config": {}}, "moving_mean_initializer": {"class_name": "Zeros", "config": {}}, "moving_variance_initializer": {"class_name": "Ones", "config": {}}, "beta_regularizer": null, "gamma_regularizer": null, "beta_constraint": null, "gamma_constraint": null}, "name": "expanded_conv_4/depthwise/BatchNorm", "inbound_nodes": [[["expanded_conv_4/depthwise", 0, 0, {}]]]}, {"class_name": "ReLU", "config": {"name": "re_lu_9", "trainable": false, "dtype": "float32", "max_value": null, "negative_slope": 0.0, "threshold": 0.0}, "name": "re_lu_9", "inbound_nodes": [[["expanded_conv_4/depthwise/BatchNorm", 0, 0, {}]]]}, {"class_name": "Conv2D", "config": {"name": "expanded_conv_4/project", "trainable": false, "dtype": "float32", "filters": 40, "kernel_size": [1, 1], "strides": [1, 1], "padding": "same", "data_format": "channels_last", "dilation_rate": [1, 1], "groups": 1, "activation": "linear", "use_bias": false, "kernel_initializer": {"class_name": "GlorotUniform", "config": {"seed": null}}, "bias_initializer": {"class_name": "Zeros", "config": {}}, "kernel_regularizer": null, "bias_regularizer": null, "activity_regularizer": null, "kernel_constraint": null, "bias_constraint": null}, "name": "expanded_conv_4/project", "inbound_nodes": [[["re_lu_9", 0, 0, {}]]]}, {"class_name": "BatchNormalization", "config": {"name": "expanded_conv_4/project/BatchNorm", "trainable": false, "dtype": "float32", "axis": [3], "momentum": 0.999, "epsilon": 0.001, "center": true, "scale": true, "beta_initializer": {"class_name": "Zeros", "config": {}}, "gamma_initializer": {"class_name": "Ones", "config": {}}, "moving_mean_initializer": {"class_name": "Zeros", "config": {}}, "moving_variance_initializer": {"class_name": "Ones", "config": {}}, "beta_regularizer": null, "gamma_regularizer": null, "beta_constraint": null, "gamma_constraint": null}, "name": "expanded_conv_4/project/BatchNorm", "inbound_nodes": [[["expanded_conv_4/project", 0, 0, {}]]]}, {"class_name": "Add", "config": {"name": "expanded_conv_4/Add", "trainable": false, "dtype": "float32"}, "name": "expanded_conv_4/Add", "inbound_nodes": [[["expanded_conv_3/project/BatchNorm", 0, 0, {}], ["expanded_conv_4/project/BatchNorm", 0, 0, {}]]]}, {"class_name": "Conv2D", "config": {"name": "expanded_conv_5/expand", "trainable": false, "dtype": "float32", "filters": 240, "kernel_size": [1, 1], "strides": [1, 1], "padding": "same", "data_format": "channels_last", "dilation_rate": [1, 1], "groups": 1, "activation": "linear", "use_bias": false, "kernel_initializer": {"class_name": "GlorotUniform", "config": {"seed": null}}, "bias_initializer": {"class_name": "Zeros", "config": {}}, "kernel_regularizer": null, "bias_regularizer": null, "activity_regularizer": null, "kernel_constraint": null, "bias_constraint": null}, "name": "expanded_conv_5/expand", "inbound_nodes": [[["expanded_conv_4/Add", 0, 0, {}]]]}, {"class_name": "BatchNormalization", "config": {"name": "expanded_conv_5/expand/BatchNorm", "trainable": false, "dtype": "float32", "axis": [3], "momentum": 0.999, "epsilon": 0.001, "center": true, "scale": true, "beta_initializer": {"class_name": "Zeros", "config": {}}, "gamma_initializer": {"class_name": "Ones", "config": {}}, "moving_mean_initializer": {"class_name": "Zeros", "config": {}}, "moving_variance_initializer": {"class_name": "Ones", "config": {}}, "beta_regularizer": null, "gamma_regularizer": null, "beta_constraint": null, "gamma_constraint": null}, "name": "expanded_conv_5/expand/BatchNorm", "inbound_nodes": [[["expanded_conv_5/expand", 0, 0, {}]]]}, {"class_name": "ReLU", "config": {"name": "re_lu_10", "trainable": false, "dtype": "float32", "max_value": null, "negative_slope": 0.0, "threshold": 0.0}, "name": "re_lu_10", "inbound_nodes": [[["expanded_conv_5/expand/BatchNorm", 0, 0, {}]]]}, {"class_name": "DepthwiseConv2D", "config": {"name": "expanded_conv_5/depthwise", "trainable": false, "dtype": "float32", "kernel_size": [3, 3], "strides": [1, 1], "padding": "same", "data_format": "channels_last", "dilation_rate": [1, 1], "groups": 1, "activation": "linear", "use_bias": false, "bias_initializer": {"class_name": "Zeros", "config": {}}, "bias_regularizer": null, "activity_regularizer": null, "bias_constraint": null, "depth_multiplier": 1, "depthwise_initializer": {"class_name": "GlorotUniform", "config": {"seed": null}}, "depthwise_regularizer": null, "depthwise_constraint": null}, "name": "expanded_conv_5/depthwise", "inbound_nodes": [[["re_lu_10", 0, 0, {}]]]}, {"class_name": "BatchNormalization", "config": {"name": "expanded_conv_5/depthwise/BatchNorm", "trainable": false, "dtype": "float32", "axis": [3], "momentum": 0.999, "epsilon": 0.001, "center": true, "scale": true, "beta_initializer": {"class_name": "Zeros", "config": {}}, "gamma_initializer": {"class_name": "Ones", "config": {}}, "moving_mean_initializer": {"class_name": "Zeros", "config": {}}, "moving_variance_initializer": {"class_name": "Ones", "config": {}}, "beta_regularizer": null, "gamma_regularizer": null, "beta_constraint": null, "gamma_constraint": null}, "name": "expanded_conv_5/depthwise/BatchNorm", "inbound_nodes": [[["expanded_conv_5/depthwise", 0, 0, {}]]]}, {"class_name": "ReLU", "config": {"name": "re_lu_11", "trainable": false, "dtype": "float32", "max_value": null, "negative_slope": 0.0, "threshold": 0.0}, "name": "re_lu_11", "inbound_nodes": [[["expanded_conv_5/depthwise/BatchNorm", 0, 0, {}]]]}, {"class_name": "Conv2D", "config": {"name": "expanded_conv_5/project", "trainable": false, "dtype": "float32", "filters": 40, "kernel_size": [1, 1], "strides": [1, 1], "padding": "same", "data_format": "channels_last", "dilation_rate": [1, 1], "groups": 1, "activation": "linear", "use_bias": false, "kernel_initializer": {"class_name": "GlorotUniform", "config": {"seed": null}}, "bias_initializer": {"class_name": "Zeros", "config": {}}, "kernel_regularizer": null, "bias_regularizer": null, "activity_regularizer": null, "kernel_constraint": null, "bias_constraint": null}, "name": "expanded_conv_5/project", "inbound_nodes": [[["re_lu_11", 0, 0, {}]]]}, {"class_name": "BatchNormalization", "config": {"name": "expanded_conv_5/project/BatchNorm", "trainable": false, "dtype": "float32", "axis": [3], "momentum": 0.999, "epsilon": 0.001, "center": true, "scale": true, "beta_initializer": {"class_name": "Zeros", "config": {}}, "gamma_initializer": {"class_name": "Ones", "config": {}}, "moving_mean_initializer": {"class_name": "Zeros", "config": {}}, "moving_variance_initializer": {"class_name": "Ones", "config": {}}, "beta_regularizer": null, "gamma_regularizer": null, "beta_constraint": null, "gamma_constraint": null}, "name": "expanded_conv_5/project/BatchNorm", "inbound_nodes": [[["expanded_conv_5/project", 0, 0, {}]]]}, {"class_name": "Add", "config": {"name": "expanded_conv_5/Add", "trainable": false, "dtype": "float32"}, "name": "expanded_conv_5/Add", "inbound_nodes": [[["expanded_conv_4/Add", 0, 0, {}], ["expanded_conv_5/project/BatchNorm", 0, 0, {}]]]}, {"class_name": "Conv2D", "config": {"name": "expanded_conv_6/expand", "trainable": false, "dtype": "float32", "filters": 120, "kernel_size": [1, 1], "strides": [1, 1], "padding": "same", "data_format": "channels_last", "dilation_rate": [1, 1], "groups": 1, "activation": "linear", "use_bias": false, "kernel_initializer": {"class_name": "GlorotUniform", "config": {"seed": null}}, "bias_initializer": {"class_name": "Zeros", "config": {}}, "kernel_regularizer": null, "bias_regularizer": null, "activity_regularizer": null, "kernel_constraint": null, "bias_constraint": null}, "name": "expanded_conv_6/expand", "inbound_nodes": [[["expanded_conv_5/Add", 0, 0, {}]]]}, {"class_name": "BatchNormalization", "config": {"name": "expanded_conv_6/expand/BatchNorm", "trainable": false, "dtype": "float32", "axis": [3], "momentum": 0.999, "epsilon": 0.001, "center": true, "scale": true, "beta_initializer": {"class_name": "Zeros", "config": {}}, "gamma_initializer": {"class_name": "Ones", "config": {}}, "moving_mean_initializer": {"class_name": "Zeros", "config": {}}, "moving_variance_initializer": {"class_name": "Ones", "config": {}}, "beta_regularizer": null, "gamma_regularizer": null, "beta_constraint": null, "gamma_constraint": null}, "name": "expanded_conv_6/expand/BatchNorm", "inbound_nodes": [[["expanded_conv_6/expand", 0, 0, {}]]]}, {"class_name": "ReLU", "config": {"name": "re_lu_12", "trainable": false, "dtype": "float32", "max_value": null, "negative_slope": 0.0, "threshold": 0.0}, "name": "re_lu_12", "inbound_nodes": [[["expanded_conv_6/expand/BatchNorm", 0, 0, {}]]]}, {"class_name": "DepthwiseConv2D", "config": {"name": "expanded_conv_6/depthwise", "trainable": false, "dtype": "float32", "kernel_size": [3, 3], "strides": [1, 1], "padding": "same", "data_format": "channels_last", "dilation_rate": [1, 1], "groups": 1, "activation": "linear", "use_bias": false, "bias_initializer": {"class_name": "Zeros", "config": {}}, "bias_regularizer": null, "activity_regularizer": null, "bias_constraint": null, "depth_multiplier": 1, "depthwise_initializer": {"class_name": "GlorotUniform", "config": {"seed": null}}, "depthwise_regularizer": null, "depthwise_constraint": null}, "name": "expanded_conv_6/depthwise", "inbound_nodes": [[["re_lu_12", 0, 0, {}]]]}, {"class_name": "BatchNormalization", "config": {"name": "expanded_conv_6/depthwise/BatchNorm", "trainable": false, "dtype": "float32", "axis": [3], "momentum": 0.999, "epsilon": 0.001, "center": true, "scale": true, "beta_initializer": {"class_name": "Zeros", "config": {}}, "gamma_initializer": {"class_name": "Ones", "config": {}}, "moving_mean_initializer": {"class_name": "Zeros", "config": {}}, "moving_variance_initializer": {"class_name": "Ones", "config": {}}, "beta_regularizer": null, "gamma_regularizer": null, "beta_constraint": null, "gamma_constraint": null}, "name": "expanded_conv_6/depthwise/BatchNorm", "inbound_nodes": [[["expanded_conv_6/depthwise", 0, 0, {}]]]}, {"class_name": "ReLU", "config": {"name": "re_lu_13", "trainable": false, "dtype": "float32", "max_value": null, "negative_slope": 0.0, "threshold": 0.0}, "name": "re_lu_13", "inbound_nodes": [[["expanded_conv_6/depthwise/BatchNorm", 0, 0, {}]]]}, {"class_name": "Conv2D", "config": {"name": "expanded_conv_6/project", "trainable": false, "dtype": "float32", "filters": 48, "kernel_size": [1, 1], "strides": [1, 1], "padding": "same", "data_format": "channels_last", "dilation_rate": [1, 1], "groups": 1, "activation": "linear", "use_bias": false, "kernel_initializer": {"class_name": "GlorotUniform", "config": {"seed": null}}, "bias_initializer": {"class_name": "Zeros", "config": {}}, "kernel_regularizer": null, "bias_regularizer": null, "activity_regularizer": null, "kernel_constraint": null, "bias_constraint": null}, "name": "expanded_conv_6/project", "inbound_nodes": [[["re_lu_13", 0, 0, {}]]]}, {"class_name": "BatchNormalization", "config": {"name": "expanded_conv_6/project/BatchNorm", "trainable": false, "dtype": "float32", "axis": [3], "momentum": 0.999, "epsilon": 0.001, "center": true, "scale": true, "beta_initializer": {"class_name": "Zeros", "config": {}}, "gamma_initializer": {"class_name": "Ones", "config": {}}, "moving_mean_initializer": {"class_name": "Zeros", "config": {}}, "moving_variance_initializer": {"class_name": "Ones", "config": {}}, "beta_regularizer": null, "gamma_regularizer": null, "beta_constraint": null, "gamma_constraint": null}, "name": "expanded_conv_6/project/BatchNorm", "inbound_nodes": [[["expanded_conv_6/project", 0, 0, {}]]]}, {"class_name": "Conv2D", "config": {"name": "expanded_conv_7/expand", "trainable": false, "dtype": "float32", "filters": 144, "kernel_size": [1, 1], "strides": [1, 1], "padding": "same", "data_format": "channels_last", "dilation_rate": [1, 1], "groups": 1, "activation": "linear", "use_bias": false, "kernel_initializer": {"class_name": "GlorotUniform", "config": {"seed": null}}, "bias_initializer": {"class_name": "Zeros", "config": {}}, "kernel_regularizer": null, "bias_regularizer": null, "activity_regularizer": null, "kernel_constraint": null, "bias_constraint": null}, "name": "expanded_conv_7/expand", "inbound_nodes": [[["expanded_conv_6/project/BatchNorm", 0, 0, {}]]]}, {"class_name": "BatchNormalization", "config": {"name": "expanded_conv_7/expand/BatchNorm", "trainable": false, "dtype": "float32", "axis": [3], "momentum": 0.999, "epsilon": 0.001, "center": true, "scale": true, "beta_initializer": {"class_name": "Zeros", "config": {}}, "gamma_initializer": {"class_name": "Ones", "config": {}}, "moving_mean_initializer": {"class_name": "Zeros", "config": {}}, "moving_variance_initializer": {"class_name": "Ones", "config": {}}, "beta_regularizer": null, "gamma_regularizer": null, "beta_constraint": null, "gamma_constraint": null}, "name": "expanded_conv_7/expand/BatchNorm", "inbound_nodes": [[["expanded_conv_7/expand", 0, 0, {}]]]}, {"class_name": "ReLU", "config": {"name": "re_lu_14", "trainable": false, "dtype": "float32", "max_value": null, "negative_slope": 0.0, "threshold": 0.0}, "name": "re_lu_14", "inbound_nodes": [[["expanded_conv_7/expand/BatchNorm", 0, 0, {}]]]}, {"class_name": "DepthwiseConv2D", "config": {"name": "expanded_conv_7/depthwise", "trainable": false, "dtype": "float32", "kernel_size": [3, 3], "strides": [1, 1], "padding": "same", "data_format": "channels_last", "dilation_rate": [1, 1], "groups": 1, "activation": "linear", "use_bias": false, "bias_initializer": {"class_name": "Zeros", "config": {}}, "bias_regularizer": null, "activity_regularizer": null, "bias_constraint": null, "depth_multiplier": 1, "depthwise_initializer": {"class_name": "GlorotUniform", "config": {"seed": null}}, "depthwise_regularizer": null, "depthwise_constraint": null}, "name": "expanded_conv_7/depthwise", "inbound_nodes": [[["re_lu_14", 0, 0, {}]]]}, {"class_name": "BatchNormalization", "config": {"name": "expanded_conv_7/depthwise/BatchNorm", "trainable": false, "dtype": "float32", "axis": [3], "momentum": 0.999, "epsilon": 0.001, "center": true, "scale": true, "beta_initializer": {"class_name": "Zeros", "config": {}}, "gamma_initializer": {"class_name": "Ones", "config": {}}, "moving_mean_initializer": {"class_name": "Zeros", "config": {}}, "moving_variance_initializer": {"class_name": "Ones", "config": {}}, "beta_regularizer": null, "gamma_regularizer": null, "beta_constraint": null, "gamma_constraint": null}, "name": "expanded_conv_7/depthwise/BatchNorm", "inbound_nodes": [[["expanded_conv_7/depthwise", 0, 0, {}]]]}, {"class_name": "ReLU", "config": {"name": "re_lu_15", "trainable": false, "dtype": "float32", "max_value": null, "negative_slope": 0.0, "threshold": 0.0}, "name": "re_lu_15", "inbound_nodes": [[["expanded_conv_7/depthwise/BatchNorm", 0, 0, {}]]]}, {"class_name": "Conv2D", "config": {"name": "expanded_conv_7/project", "trainable": false, "dtype": "float32", "filters": 48, "kernel_size": [1, 1], "strides": [1, 1], "padding": "same", "data_format": "channels_last", "dilation_rate": [1, 1], "groups": 1, "activation": "linear", "use_bias": false, "kernel_initializer": {"class_name": "GlorotUniform", "config": {"seed": null}}, "bias_initializer": {"class_name": "Zeros", "config": {}}, "kernel_regularizer": null, "bias_regularizer": null, "activity_regularizer": null, "kernel_constraint": null, "bias_constraint": null}, "name": "expanded_conv_7/project", "inbound_nodes": [[["re_lu_15", 0, 0, {}]]]}, {"class_name": "BatchNormalization", "config": {"name": "expanded_conv_7/project/BatchNorm", "trainable": false, "dtype": "float32", "axis": [3], "momentum": 0.999, "epsilon": 0.001, "center": true, "scale": true, "beta_initializer": {"class_name": "Zeros", "config": {}}, "gamma_initializer": {"class_name": "Ones", "config": {}}, "moving_mean_initializer": {"class_name": "Zeros", "config": {}}, "moving_variance_initializer": {"class_name": "Ones", "config": {}}, "beta_regularizer": null, "gamma_regularizer": null, "beta_constraint": null, "gamma_constraint": null}, "name": "expanded_conv_7/project/BatchNorm", "inbound_nodes": [[["expanded_conv_7/project", 0, 0, {}]]]}, {"class_name": "Add", "config": {"name": "expanded_conv_7/Add", "trainable": false, "dtype": "float32"}, "name": "expanded_conv_7/Add", "inbound_nodes": [[["expanded_conv_6/project/BatchNorm", 0, 0, {}], ["expanded_conv_7/project/BatchNorm", 0, 0, {}]]]}, {"class_name": "Conv2D", "config": {"name": "expanded_conv_8/expand", "trainable": false, "dtype": "float32", "filters": 288, "kernel_size": [1, 1], "strides": [1, 1], "padding": "same", "data_format": "channels_last", "dilation_rate": [1, 1], "groups": 1, "activation": "linear", "use_bias": false, "kernel_initializer": {"class_name": "GlorotUniform", "config": {"seed": null}}, "bias_initializer": {"class_name": "Zeros", "config": {}}, "kernel_regularizer": null, "bias_regularizer": null, "activity_regularizer": null, "kernel_constraint": null, "bias_constraint": null}, "name": "expanded_conv_8/expand", "inbound_nodes": [[["expanded_conv_7/Add", 0, 0, {}]]]}, {"class_name": "BatchNormalization", "config": {"name": "expanded_conv_8/expand/BatchNorm", "trainable": false, "dtype": "float32", "axis": [3], "momentum": 0.999, "epsilon": 0.001, "center": true, "scale": true, "beta_initializer": {"class_name": "Zeros", "config": {}}, "gamma_initializer": {"class_name": "Ones", "config": {}}, "moving_mean_initializer": {"class_name": "Zeros", "config": {}}, "moving_variance_initializer": {"class_name": "Ones", "config": {}}, "beta_regularizer": null, "gamma_regularizer": null, "beta_constraint": null, "gamma_constraint": null}, "name": "expanded_conv_8/expand/BatchNorm", "inbound_nodes": [[["expanded_conv_8/expand", 0, 0, {}]]]}, {"class_name": "ReLU", "config": {"name": "re_lu_16", "trainable": false, "dtype": "float32", "max_value": null, "negative_slope": 0.0, "threshold": 0.0}, "name": "re_lu_16", "inbound_nodes": [[["expanded_conv_8/expand/BatchNorm", 0, 0, {}]]]}, {"class_name": "ZeroPadding2D", "config": {"name": "expanded_conv_8/depthwise/pad", "trainable": false, "dtype": "float32", "padding": [[0, 1], [0, 1]], "data_format": "channels_last"}, "name": "expanded_conv_8/depthwise/pad", "inbound_nodes": [[["re_lu_16", 0, 0, {}]]]}, {"class_name": "DepthwiseConv2D", "config": {"name": "expanded_conv_8/depthwise", "trainable": false, "dtype": "float32", "kernel_size": [3, 3], "strides": [2, 2], "padding": "valid", "data_format": "channels_last", "dilation_rate": [1, 1], "groups": 1, "activation": "linear", "use_bias": false, "bias_initializer": {"class_name": "Zeros", "config": {}}, "bias_regularizer": null, "activity_regularizer": null, "bias_constraint": null, "depth_multiplier": 1, "depthwise_initializer": {"class_name": "GlorotUniform", "config": {"seed": null}}, "depthwise_regularizer": null, "depthwise_constraint": null}, "name": "expanded_conv_8/depthwise", "inbound_nodes": [[["expanded_conv_8/depthwise/pad", 0, 0, {}]]]}, {"class_name": "BatchNormalization", "config": {"name": "expanded_conv_8/depthwise/BatchNorm", "trainable": false, "dtype": "float32", "axis": [3], "momentum": 0.999, "epsilon": 0.001, "center": true, "scale": true, "beta_initializer": {"class_name": "Zeros", "config": {}}, "gamma_initializer": {"class_name": "Ones", "config": {}}, "moving_mean_initializer": {"class_name": "Zeros", "config": {}}, "moving_variance_initializer": {"class_name": "Ones", "config": {}}, "beta_regularizer": null, "gamma_regularizer": null, "beta_constraint": null, "gamma_constraint": null}, "name": "expanded_conv_8/depthwise/BatchNorm", "inbound_nodes": [[["expanded_conv_8/depthwise", 0, 0, {}]]]}, {"class_name": "ReLU", "config": {"name": "re_lu_17", "trainable": false, "dtype": "float32", "max_value": null, "negative_slope": 0.0, "threshold": 0.0}, "name": "re_lu_17", "inbound_nodes": [[["expanded_conv_8/depthwise/BatchNorm", 0, 0, {}]]]}, {"class_name": "Conv2D", "config": {"name": "expanded_conv_8/project", "trainable": false, "dtype": "float32", "filters": 96, "kernel_size": [1, 1], "strides": [1, 1], "padding": "same", "data_format": "channels_last", "dilation_rate": [1, 1], "groups": 1, "activation": "linear", "use_bias": false, "kernel_initializer": {"class_name": "GlorotUniform", "config": {"seed": null}}, "bias_initializer": {"class_name": "Zeros", "config": {}}, "kernel_regularizer": null, "bias_regularizer": null, "activity_regularizer": null, "kernel_constraint": null, "bias_constraint": null}, "name": "expanded_conv_8/project", "inbound_nodes": [[["re_lu_17", 0, 0, {}]]]}, {"class_name": "BatchNormalization", "config": {"name": "expanded_conv_8/project/BatchNorm", "trainable": false, "dtype": "float32", "axis": [3], "momentum": 0.999, "epsilon": 0.001, "center": true, "scale": true, "beta_initializer": {"class_name": "Zeros", "config": {}}, "gamma_initializer": {"class_name": "Ones", "config": {}}, "moving_mean_initializer": {"class_name": "Zeros", "config": {}}, "moving_variance_initializer": {"class_name": "Ones", "config": {}}, "beta_regularizer": null, "gamma_regularizer": null, "beta_constraint": null, "gamma_constraint": null}, "name": "expanded_conv_8/project/BatchNorm", "inbound_nodes": [[["expanded_conv_8/project", 0, 0, {}]]]}, {"class_name": "Conv2D", "config": {"name": "expanded_conv_9/expand", "trainable": false, "dtype": "float32", "filters": 576, "kernel_size": [1, 1], "strides": [1, 1], "padding": "same", "data_format": "channels_last", "dilation_rate": [1, 1], "groups": 1, "activation": "linear", "use_bias": false, "kernel_initializer": {"class_name": "GlorotUniform", "config": {"seed": null}}, "bias_initializer": {"class_name": "Zeros", "config": {}}, "kernel_regularizer": null, "bias_regularizer": null, "activity_regularizer": null, "kernel_constraint": null, "bias_constraint": null}, "name": "expanded_conv_9/expand", "inbound_nodes": [[["expanded_conv_8/project/BatchNorm", 0, 0, {}]]]}, {"class_name": "BatchNormalization", "config": {"name": "expanded_conv_9/expand/BatchNorm", "trainable": true, "dtype": "float32", "axis": [3], "momentum": 0.999, "epsilon": 0.001, "center": true, "scale": true, "beta_initializer": {"class_name": "Zeros", "config": {}}, "gamma_initializer": {"class_name": "Ones", "config": {}}, "moving_mean_initializer": {"class_name": "Zeros", "config": {}}, "moving_variance_initializer": {"class_name": "Ones", "config": {}}, "beta_regularizer": null, "gamma_regularizer": null, "beta_constraint": null, "gamma_constraint": null}, "name": "expanded_conv_9/expand/BatchNorm", "inbound_nodes": [[["expanded_conv_9/expand", 0, 0, {}]]]}, {"class_name": "ReLU", "config": {"name": "re_lu_18", "trainable": true, "dtype": "float32", "max_value": null, "negative_slope": 0.0, "threshold": 0.0}, "name": "re_lu_18", "inbound_nodes": [[["expanded_conv_9/expand/BatchNorm", 0, 0, {}]]]}, {"class_name": "DepthwiseConv2D", "config": {"name": "expanded_conv_9/depthwise", "trainable": true, "dtype": "float32", "kernel_size": [3, 3], "strides": [1, 1], "padding": "same", "data_format": "channels_last", "dilation_rate": [1, 1], "groups": 1, "activation": "linear", "use_bias": false, "bias_initializer": {"class_name": "Zeros", "config": {}}, "bias_regularizer": null, "activity_regularizer": null, "bias_constraint": null, "depth_multiplier": 1, "depthwise_initializer": {"class_name": "GlorotUniform", "config": {"seed": null}}, "depthwise_regularizer": null, "depthwise_constraint": null}, "name": "expanded_conv_9/depthwise", "inbound_nodes": [[["re_lu_18", 0, 0, {}]]]}, {"class_name": "BatchNormalization", "config": {"name": "expanded_conv_9/depthwise/BatchNorm", "trainable": true, "dtype": "float32", "axis": [3], "momentum": 0.999, "epsilon": 0.001, "center": true, "scale": true, "beta_initializer": {"class_name": "Zeros", "config": {}}, "gamma_initializer": {"class_name": "Ones", "config": {}}, "moving_mean_initializer": {"class_name": "Zeros", "config": {}}, "moving_variance_initializer": {"class_name": "Ones", "config": {}}, "beta_regularizer": null, "gamma_regularizer": null, "beta_constraint": null, "gamma_constraint": null}, "name": "expanded_conv_9/depthwise/BatchNorm", "inbound_nodes": [[["expanded_conv_9/depthwise", 0, 0, {}]]]}, {"class_name": "ReLU", "config": {"name": "re_lu_19", "trainable": true, "dtype": "float32", "max_value": null, "negative_slope": 0.0, "threshold": 0.0}, "name": "re_lu_19", "inbound_nodes": [[["expanded_conv_9/depthwise/BatchNorm", 0, 0, {}]]]}, {"class_name": "Conv2D", "config": {"name": "expanded_conv_9/project", "trainable": true, "dtype": "float32", "filters": 96, "kernel_size": [1, 1], "strides": [1, 1], "padding": "same", "data_format": "channels_last", "dilation_rate": [1, 1], "groups": 1, "activation": "linear", "use_bias": false, "kernel_initializer": {"class_name": "GlorotUniform", "config": {"seed": null}}, "bias_initializer": {"class_name": "Zeros", "config": {}}, "kernel_regularizer": null, "bias_regularizer": null, "activity_regularizer": null, "kernel_constraint": null, "bias_constraint": null}, "name": "expanded_conv_9/project", "inbound_nodes": [[["re_lu_19", 0, 0, {}]]]}, {"class_name": "BatchNormalization", "config": {"name": "expanded_conv_9/project/BatchNorm", "trainable": true, "dtype": "float32", "axis": [3], "momentum": 0.999, "epsilon": 0.001, "center": true, "scale": true, "beta_initializer": {"class_name": "Zeros", "config": {}}, "gamma_initializer": {"class_name": "Ones", "config": {}}, "moving_mean_initializer": {"class_name": "Zeros", "config": {}}, "moving_variance_initializer": {"class_name": "Ones", "config": {}}, "beta_regularizer": null, "gamma_regularizer": null, "beta_constraint": null, "gamma_constraint": null}, "name": "expanded_conv_9/project/BatchNorm", "inbound_nodes": [[["expanded_conv_9/project", 0, 0, {}]]]}, {"class_name": "Add", "config": {"name": "expanded_conv_9/Add", "trainable": true, "dtype": "float32"}, "name": "expanded_conv_9/Add", "inbound_nodes": [[["expanded_conv_8/project/BatchNorm", 0, 0, {}], ["expanded_conv_9/project/BatchNorm", 0, 0, {}]]]}, {"class_name": "Conv2D", "config": {"name": "expanded_conv_10/expand", "trainable": true, "dtype": "float32", "filters": 576, "kernel_size": [1, 1], "strides": [1, 1], "padding": "same", "data_format": "channels_last", "dilation_rate": [1, 1], "groups": 1, "activation": "linear", "use_bias": false, "kernel_initializer": {"class_name": "GlorotUniform", "config": {"seed": null}}, "bias_initializer": {"class_name": "Zeros", "config": {}}, "kernel_regularizer": null, "bias_regularizer": null, "activity_regularizer": null, "kernel_constraint": null, "bias_constraint": null}, "name": "expanded_conv_10/expand", "inbound_nodes": [[["expanded_conv_9/Add", 0, 0, {}]]]}, {"class_name": "BatchNormalization", "config": {"name": "expanded_conv_10/expand/BatchNorm", "trainable": true, "dtype": "float32", "axis": [3], "momentum": 0.999, "epsilon": 0.001, "center": true, "scale": true, "beta_initializer": {"class_name": "Zeros", "config": {}}, "gamma_initializer": {"class_name": "Ones", "config": {}}, "moving_mean_initializer": {"class_name": "Zeros", "config": {}}, "moving_variance_initializer": {"class_name": "Ones", "config": {}}, "beta_regularizer": null, "gamma_regularizer": null, "beta_constraint": null, "gamma_constraint": null}, "name": "expanded_conv_10/expand/BatchNorm", "inbound_nodes": [[["expanded_conv_10/expand", 0, 0, {}]]]}, {"class_name": "ReLU", "config": {"name": "re_lu_20", "trainable": true, "dtype": "float32", "max_value": null, "negative_slope": 0.0, "threshold": 0.0}, "name": "re_lu_20", "inbound_nodes": [[["expanded_conv_10/expand/BatchNorm", 0, 0, {}]]]}, {"class_name": "DepthwiseConv2D", "config": {"name": "expanded_conv_10/depthwise", "trainable": true, "dtype": "float32", "kernel_size": [3, 3], "strides": [1, 1], "padding": "same", "data_format": "channels_last", "dilation_rate": [1, 1], "groups": 1, "activation": "linear", "use_bias": false, "bias_initializer": {"class_name": "Zeros", "config": {}}, "bias_regularizer": null, "activity_regularizer": null, "bias_constraint": null, "depth_multiplier": 1, "depthwise_initializer": {"class_name": "GlorotUniform", "config": {"seed": null}}, "depthwise_regularizer": null, "depthwise_constraint": null}, "name": "expanded_conv_10/depthwise", "inbound_nodes": [[["re_lu_20", 0, 0, {}]]]}, {"class_name": "BatchNormalization", "config": {"name": "expanded_conv_10/depthwise/BatchNorm", "trainable": true, "dtype": "float32", "axis": [3], "momentum": 0.999, "epsilon": 0.001, "center": true, "scale": true, "beta_initializer": {"class_name": "Zeros", "config": {}}, "gamma_initializer": {"class_name": "Ones", "config": {}}, "moving_mean_initializer": {"class_name": "Zeros", "config": {}}, "moving_variance_initializer": {"class_name": "Ones", "config": {}}, "beta_regularizer": null, "gamma_regularizer": null, "beta_constraint": null, "gamma_constraint": null}, "name": "expanded_conv_10/depthwise/BatchNorm", "inbound_nodes": [[["expanded_conv_10/depthwise", 0, 0, {}]]]}, {"class_name": "ReLU", "config": {"name": "re_lu_21", "trainable": true, "dtype": "float32", "max_value": null, "negative_slope": 0.0, "threshold": 0.0}, "name": "re_lu_21", "inbound_nodes": [[["expanded_conv_10/depthwise/BatchNorm", 0, 0, {}]]]}, {"class_name": "Conv2D", "config": {"name": "expanded_conv_10/project", "trainable": true, "dtype": "float32", "filters": 96, "kernel_size": [1, 1], "strides": [1, 1], "padding": "same", "data_format": "channels_last", "dilation_rate": [1, 1], "groups": 1, "activation": "linear", "use_bias": false, "kernel_initializer": {"class_name": "GlorotUniform", "config": {"seed": null}}, "bias_initializer": {"class_name": "Zeros", "config": {}}, "kernel_regularizer": null, "bias_regularizer": null, "activity_regularizer": null, "kernel_constraint": null, "bias_constraint": null}, "name": "expanded_conv_10/project", "inbound_nodes": [[["re_lu_21", 0, 0, {}]]]}, {"class_name": "BatchNormalization", "config": {"name": "expanded_conv_10/project/BatchNorm", "trainable": true, "dtype": "float32", "axis": [3], "momentum": 0.999, "epsilon": 0.001, "center": true, "scale": true, "beta_initializer": {"class_name": "Zeros", "config": {}}, "gamma_initializer": {"class_name": "Ones", "config": {}}, "moving_mean_initializer": {"class_name": "Zeros", "config": {}}, "moving_variance_initializer": {"class_name": "Ones", "config": {}}, "beta_regularizer": null, "gamma_regularizer": null, "beta_constraint": null, "gamma_constraint": null}, "name": "expanded_conv_10/project/BatchNorm", "inbound_nodes": [[["expanded_conv_10/project", 0, 0, {}]]]}, {"class_name": "Add", "config": {"name": "expanded_conv_10/Add", "trainable": true, "dtype": "float32"}, "name": "expanded_conv_10/Add", "inbound_nodes": [[["expanded_conv_9/Add", 0, 0, {}], ["expanded_conv_10/project/BatchNorm", 0, 0, {}]]]}, {"class_name": "Conv2D", "config": {"name": "Conv_1", "trainable": true, "dtype": "float32", "filters": 576, "kernel_size": [1, 1], "strides": [1, 1], "padding": "same", "data_format": "channels_last", "dilation_rate": [1, 1], "groups": 1, "activation": "linear", "use_bias": false, "kernel_initializer": {"class_name": "GlorotUniform", "config": {"seed": null}}, "bias_initializer": {"class_name": "Zeros", "config": {}}, "kernel_regularizer": null, "bias_regularizer": null, "activity_regularizer": null, "kernel_constraint": null, "bias_constraint": null}, "name": "Conv_1", "inbound_nodes": [[["expanded_conv_10/Add", 0, 0, {}]]]}, {"class_name": "BatchNormalization", "config": {"name": "Conv_1/BatchNorm", "trainable": true, "dtype": "float32", "axis": [3], "momentum": 0.999, "epsilon": 0.001, "center": true, "scale": true, "beta_initializer": {"class_name": "Zeros", "config": {}}, "gamma_initializer": {"class_name": "Ones", "config": {}}, "moving_mean_initializer": {"class_name": "Zeros", "config": {}}, "moving_variance_initializer": {"class_name": "Ones", "config": {}}, "beta_regularizer": null, "gamma_regularizer": null, "beta_constraint": null, "gamma_constraint": null}, "name": "Conv_1/BatchNorm", "inbound_nodes": [[["Conv_1", 0, 0, {}]]]}, {"class_name": "ReLU", "config": {"name": "re_lu_22", "trainable": true, "dtype": "float32", "max_value": null, "negative_slope": 0.0, "threshold": 0.0}, "name": "re_lu_22", "inbound_nodes": [[["Conv_1/BatchNorm", 0, 0, {}]]]}], "input_layers": [["input_1", 0, 0]], "output_layers": [["re_lu_22", 0, 0]]}, "name": "MobilenetV3small", "inbound_nodes": [[["rescale", 0, 0, {"training": false}]]]}, {"class_name": "GlobalAveragePooling2D", "config": {"name": "gap", "trainable": true, "dtype": "float32", "data_format": "channels_last", "keepdims": false}, "name": "gap", "inbound_nodes": [[["MobilenetV3small", 1, 0, {}]]]}, {"class_name": "Dropout", "config": {"name": "dropout", "trainable": true, "dtype": "float32", "rate": 0.3, "noise_shape": null, "seed": null}, "name": "dropout", "inbound_nodes": [[["gap", 0, 0, {}]]]}, {"class_name": "Dense", "config": {"name": "dense_64", "trainable": true, "dtype": "float32", "units": 64, "activation": "relu", "use_bias": true, "kernel_initializer": {"class_name": "GlorotUniform", "config": {"seed": null}}, "bias_initializer": {"class_name": "Zeros", "config": {}}, "kernel_regularizer": null, "bias_regularizer": null, "activity_regularizer": null, "kernel_constraint": null, "bias_constraint": null}, "name": "dense_64", "inbound_nodes": [[["dropout", 0, 0, {}]]]}, {"class_name": "Dense", "config": {"name": "output", "trainable": true, "dtype": "float32", "units": 1, "activation": "sigmoid", "use_bias": true, "kernel_initializer": {"class_name": "GlorotUniform", "config": {"seed": null}}, "bias_initializer": {"class_name": "Zeros", "config": {}}, "kernel_regularizer": null, "bias_regularizer": null, "activity_regularizer": null, "kernel_constraint": null, "bias_constraint": null}, "name": "output", "inbound_nodes": [[["dense_64", 0, 0, {}]]]}], "input_layers": [["input_image", 0, 0]], "output_layers": [["output", 0, 0]]}}, "training_config": {"loss": "binary_crossentropy", "metrics": [[{"class_name": "MeanMetricWrapper", "config": {"name": "accuracy", "dtype": "float32", "fn": "binary_accuracy"}}]], "weighted_metrics": null, "loss_weights": null, "optimizer_config": {"class_name": "Adam", "config": {"name": "Adam", "learning_rate": 9.999999747378752e-06, "decay": 0.0, "beta_1": 0.8999999761581421, "beta_2": 0.9990000128746033, "epsilon": 1e-07, "amsgrad": false}}}}, "weightsManifest": [{"paths": ["group1-shard1of1.bin"], "weights": [{"name": "expanded_conv_9/expand/BatchNorm/gamma", "shape": [576], "dtype": "float32"}, {"name": "expanded_conv_9/expand/BatchNorm/beta", "shape": [576], "dtype": "float32"}, {"name": "expanded_conv_9/depthwise/depthwise_kernel", "shape": [3, 3, 576, 1], "dtype": "float32"}, {"name": "expanded_conv_9/depthwise/BatchNorm/gamma", "shape": [576], "dtype": "float32"}, {"name": "expanded_conv_9/depthwise/BatchNorm/beta", "shape": [576], "dtype": "float32"}, {"name": "expanded_conv_9/project/kernel", "shape": [1, 1, 576, 96], "dtype": "float32"}, {"name": "expanded_conv_9/project/BatchNorm/gamma", "shape": [96], "dtype": "float32"}, {"name": "expanded_conv_9/project/BatchNorm/beta", "shape": [96], "dtype": "float32"}, {"name": "expanded_conv_10/expand/kernel", "shape": [1, 1, 96, 576], "dtype": "float32"}, {"name": "expanded_conv_10/expand/BatchNorm/gamma", "shape": [576], "dtype": "float32"}, {"name": "expanded_conv_10/expand/BatchNorm/beta", "shape": [576], "dtype": "float32"}, {"name": "expanded_conv_10/depthwise/depthwise_kernel", "shape": [3, 3, 576, 1], "dtype": "float32"}, {"name": "expanded_conv_10/depthwise/BatchNorm/gamma", "shape": [576], "dtype": "float32"}, {"name": "expanded_conv_10/depthwise/BatchNorm/beta", "shape": [576], "dtype": "float32"}, {"name": "expanded_conv_10/project/kernel", "shape": [1, 1, 576, 96], "dtype": "float32"}, {"name": "expanded_conv_10/project/BatchNorm/gamma", "shape": [96], "dtype": "float32"}, {"name": "expanded_conv_10/project/BatchNorm/beta", "shape": [96], "dtype": "float32"}, {"name": "Conv_1/kernel", "shape": [1, 1, 96, 576], "dtype": "float32"}, {"name": "Conv_1/BatchNorm/gamma", "shape": [576], "dtype": "float32"}, {"name": "Conv_1/BatchNorm/beta", "shape": [576], "dtype": "float32"}, {"name": "Conv/kernel", "shape": [3, 3, 3, 16], "dtype": "float32"}, {"name": "Conv/BatchNorm/gamma", "shape": [16], "dtype": "float32"}, {"name": "Conv/BatchNorm/beta", "shape": [16], "dtype": "float32"}, {"name": "Conv/BatchNorm/moving_mean", "shape": [16], "dtype": "float32"}, {"name": "Conv/BatchNorm/moving_variance", "shape": [16], "dtype": "float32"}, {"name": "expanded_conv/depthwise/depthwise_kernel", "shape": [3, 3, 16, 1], "dtype": "float32"}, {"name": "expanded_conv/depthwise/BatchNorm/gamma", "shape": [16], "dtype": "float32"}, {"name": "expanded_conv/depthwise/BatchNorm/beta", "shape": [16], "dtype": "float32"}, {"name": "expanded_conv/depthwise/BatchNorm/moving_mean", "shape": [16], "dtype": "float32"}, {"name": "expanded_conv/depthwise/BatchNorm/moving_variance", "shape": [16], "dtype": "float32"}, {"name": "expanded_conv/project/kernel", "shape": [1, 1, 16, 16], "dtype": "float32"}, {"name": "expanded_conv/project/BatchNorm/gamma", "shape": [16], "dtype": "float32"}, {"name": "expanded_conv/project/BatchNorm/beta", "shape": [16], "dtype": "float32"}, {"name": "expanded_conv/project/BatchNorm/moving_mean", "shape": [16], "dtype": "float32"}, {"name": "expanded_conv/project/BatchNorm/moving_variance", "shape": [16], "dtype": "float32"}, {"name": "expanded_conv_1/expand/kernel", "shape": [1, 1, 16, 72], "dtype": "float32"}, {"name": "expanded_conv_1/expand/BatchNorm/gamma", "shape": [72], "dtype": "float32"}, {"name": "expanded_conv_1/expand/BatchNorm/beta", "shape": [72], "dtype": "float32"}, {"name": "expanded_conv_1/expand/BatchNorm/moving_mean", "shape": [72], "dtype": "float32"}, {"name": "expanded_conv_1/expand/BatchNorm/moving_variance", "shape": [72], "dtype": "float32"}, {"name": "expanded_conv_1/depthwise/depthwise_kernel", "shape": [3, 3, 72, 1], "dtype": "float32"}, {"name": "expanded_conv_1/depthwise/BatchNorm/gamma", "shape": [72], "dtype": "float32"}, {"name": "expanded_conv_1/depthwise/BatchNorm/beta", "shape": [72], "dtype": "float32"}, {"name": "expanded_conv_1/depthwise/BatchNorm/moving_mean", "shape": [72], "dtype": "float32"}, {"name": "expanded_conv_1/depthwise/BatchNorm/moving_variance", "shape": [72], "dtype": "float32"}, {"name": "expanded_conv_1/project/kernel", "shape": [1, 1, 72, 24], "dtype": "float32"}, {"name": "expanded_conv_1/project/BatchNorm/gamma", "shape": [24], "dtype": "float32"}, {"name": "expanded_conv_1/project/BatchNorm/beta", "shape": [24], "dtype": "float32"}, {"name": "expanded_conv_1/project/BatchNorm/moving_mean", "shape": [24], "dtype": "float32"}, {"name": "expanded_conv_1/project/BatchNorm/moving_variance", "shape": [24], "dtype": "float32"}, {"name": "expanded_conv_2/expand/kernel", "shape": [1, 1, 24, 88], "dtype": "float32"}, {"name": "expanded_conv_2/expand/BatchNorm/gamma", "shape": [88], "dtype": "float32"}, {"name": "expanded_conv_2/expand/BatchNorm/beta", "shape": [88], "dtype": "float32"}, {"name": "expanded_conv_2/expand/BatchNorm/moving_mean", "shape": [88], "dtype": "float32"}, {"name": "expanded_conv_2/expand/BatchNorm/moving_variance", "shape": [88], "dtype": "float32"}, {"name": "expanded_conv_2/depthwise/depthwise_kernel", "shape": [3, 3, 88, 1], "dtype": "float32"}, {"name": "expanded_conv_2/depthwise/BatchNorm/gamma", "shape": [88], "dtype": "float32"}, {"name": "expanded_conv_2/depthwise/BatchNorm/beta", "shape": [88], "dtype": "float32"}, {"name": "expanded_conv_2/depthwise/BatchNorm/moving_mean", "shape": [88], "dtype": "float32"}, {"name": "expanded_conv_2/depthwise/BatchNorm/moving_variance", "shape": [88], "dtype": "float32"}, {"name": "expanded_conv_2/project/kernel", "shape": [1, 1, 88, 24], "dtype": "float32"}, {"name": "expanded_conv_2/project/BatchNorm/gamma", "shape": [24], "dtype": "float32"}, {"name": "expanded_conv_2/project/BatchNorm/beta", "shape": [24], "dtype": "float32"}, {"name": "expanded_conv_2/project/BatchNorm/moving_mean", "shape": [24], "dtype": "float32"}, {"name": "expanded_conv_2/project/BatchNorm/moving_variance", "shape": [24], "dtype": "float32"}, {"name": "expanded_conv_3/expand/kernel", "shape": [1, 1, 24, 96], "dtype": "float32"}, {"name": "expanded_conv_3/expand/BatchNorm/gamma", "shape": [96], "dtype": "float32"}, {"name": "expanded_conv_3/expand/BatchNorm/beta", "shape": [96], "dtype": "float32"}, {"name": "expanded_conv_3/expand/BatchNorm/moving_mean", "shape": [96], "dtype": "float32"}, {"name": "expanded_conv_3/expand/BatchNorm/moving_variance", "shape": [96], "dtype": "float32"}, {"name": "expanded_conv_3/depthwise/depthwise_kernel", "shape": [3, 3, 96, 1], "dtype": "float32"}, {"name": "expanded_conv_3/depthwise/BatchNorm/gamma", "shape": [96], "dtype": "float32"}, {"name": "expanded_conv_3/depthwise/BatchNorm/beta", "shape": [96], "dtype": "float32"}, {"name": "expanded_conv_3/depthwise/BatchNorm/moving_mean", "shape": [96], "dtype": "float32"}, {"name": "expanded_conv_3/depthwise/BatchNorm/moving_variance", "shape": [96], "dtype": "float32"}, {"name": "expanded_conv_3/project/kernel", "shape": [1, 1, 96, 40], "dtype": "float32"}, {"name": "expanded_conv_3/project/BatchNorm/gamma", "shape": [40], "dtype": "float32"}, {"name": "expanded_conv_3/project/BatchNorm/beta", "shape": [40], "dtype": "float32"}, {"name": "expanded_conv_3/project/BatchNorm/moving_mean", "shape": [40], "dtype": "float32"}, {"name": "expanded_conv_3/project/BatchNorm/moving_variance", "shape": [40], "dtype": "float32"}, {"name": "expanded_conv_4/expand/kernel", "shape": [1, 1, 40, 240], "dtype": "float32"}, {"name": "expanded_conv_4/expand/BatchNorm/gamma", "shape": [240], "dtype": "float32"}, {"name": "expanded_conv_4/expand/BatchNorm/beta", "shape": [240], "dtype": "float32"}, {"name": "expanded_conv_4/expand/BatchNorm/moving_mean", "shape": [240], "dtype": "float32"}, {"name": "expanded_conv_4/expand/BatchNorm/moving_variance", "shape": [240], "dtype": "float32"}, {"name": "expanded_conv_4/depthwise/depthwise_kernel", "shape": [3, 3, 240, 1], "dtype": "float32"}, {"name": "expanded_conv_4/depthwise/BatchNorm/gamma", "shape": [240], "dtype": "float32"}, {"name": "expanded_conv_4/depthwise/BatchNorm/beta", "shape": [240], "dtype": "float32"}, {"name": "expanded_conv_4/depthwise/BatchNorm/moving_mean", "shape": [240], "dtype": "float32"}, {"name": "expanded_conv_4/depthwise/BatchNorm/moving_variance", "shape": [240], "dtype": "float32"}, {"name": "expanded_conv_4/project/kernel", "shape": [1, 1, 240, 40], "dtype": "float32"}, {"name": "expanded_conv_4/project/BatchNorm/gamma", "shape": [40], "dtype": "float32"}, {"name": "expanded_conv_4/project/BatchNorm/beta", "shape": [40], "dtype": "float32"}, {"name": "expanded_conv_4/project/BatchNorm/moving_mean", "shape": [40], "dtype": "float32"}, {"name": "expanded_conv_4/project/BatchNorm/moving_variance", "shape": [40], "dtype": "float32"}, {"name": "expanded_conv_5/expand/kernel", "shape": [1, 1, 40, 240], "dtype": "float32"}, {"name": "expanded_conv_5/expand/BatchNorm/gamma", "shape": [240], "dtype": "float32"}, {"name": "expanded_conv_5/expand/BatchNorm/beta", "shape": [240], "dtype": "float32"}, {"name": "expanded_conv_5/expand/BatchNorm/moving_mean", "shape": [240], "dtype": "float32"}, {"name": "expanded_conv_5/expand/BatchNorm/moving_variance", "shape": [240], "dtype": "float32"}, {"name": "expanded_conv_5/depthwise/depthwise_kernel", "shape": [3, 3, 240, 1], "dtype": "float32"}, {"name": "expanded_conv_5/depthwise/BatchNorm/gamma", "shape": [240], "dtype": "float32"}, {"name": "expanded_conv_5/depthwise/BatchNorm/beta", "shape": [240], "dtype": "float32"}, {"name": "expanded_conv_5/depthwise/BatchNorm/moving_mean", "shape": [240], "dtype": "float32"}, {"name": "expanded_conv_5/depthwise/BatchNorm/moving_variance", "shape": [240], "dtype": "float32"}, {"name": "expanded_conv_5/project/kernel", "shape": [1, 1, 240, 40], "dtype": "float32"}, {"name": "expanded_conv_5/project/BatchNorm/gamma", "shape": [40], "dtype": "float32"}, {"name": "expanded_conv_5/project/BatchNorm/beta", "shape": [40], "dtype": "float32"}, {"name": "expanded_conv_5/project/BatchNorm/moving_mean", "shape": [40], "dtype": "float32"}, {"name": "expanded_conv_5/project/BatchNorm/moving_variance", "shape": [40], "dtype": "float32"}, {"name": "expanded_conv_6/expand/kernel", "shape": [1, 1, 40, 120], "dtype": "float32"}, {"name": "expanded_conv_6/expand/BatchNorm/gamma", "shape": [120], "dtype": "float32"}, {"name": "expanded_conv_6/expand/BatchNorm/beta", "shape": [120], "dtype": "float32"}, {"name": "expanded_conv_6/expand/BatchNorm/moving_mean", "shape": [120], "dtype": "float32"}, {"name": "expanded_conv_6/expand/BatchNorm/moving_variance", "shape": [120], "dtype": "float32"}, {"name": "expanded_conv_6/depthwise/depthwise_kernel", "shape": [3, 3, 120, 1], "dtype": "float32"}, {"name": "expanded_conv_6/depthwise/BatchNorm/gamma", "shape": [120], "dtype": "float32"}, {"name": "expanded_conv_6/depthwise/BatchNorm/beta", "shape": [120], "dtype": "float32"}, {"name": "expanded_conv_6/depthwise/BatchNorm/moving_mean", "shape": [120], "dtype": "float32"}, {"name": "expanded_conv_6/depthwise/BatchNorm/moving_variance", "shape": [120], "dtype": "float32"}, {"name": "expanded_conv_6/project/kernel", "shape": [1, 1, 120, 48], "dtype": "float32"}, {"name": "expanded_conv_6/project/BatchNorm/gamma", "shape": [48], "dtype": "float32"}, {"name": "expanded_conv_6/project/BatchNorm/beta", "shape": [48], "dtype": "float32"}, {"name": "expanded_conv_6/project/BatchNorm/moving_mean", "shape": [48], "dtype": "float32"}, {"name": "expanded_conv_6/project/BatchNorm/moving_variance", "shape": [48], "dtype": "float32"}, {"name": "expanded_conv_7/expand/kernel", "shape": [1, 1, 48, 144], "dtype": "float32"}, {"name": "expanded_conv_7/expand/BatchNorm/gamma", "shape": [144], "dtype": "float32"}, {"name": "expanded_conv_7/expand/BatchNorm/beta", "shape": [144], "dtype": "float32"}, {"name": "expanded_conv_7/expand/BatchNorm/moving_mean", "shape": [144], "dtype": "float32"}, {"name": "expanded_conv_7/expand/BatchNorm/moving_variance", "shape": [144], "dtype": "float32"}, {"name": "expanded_conv_7/depthwise/depthwise_kernel", "shape": [3, 3, 144, 1], "dtype": "float32"}, {"name": "expanded_conv_7/depthwise/BatchNorm/gamma", "shape": [144], "dtype": "float32"}, {"name": "expanded_conv_7/depthwise/BatchNorm/beta", "shape": [144], "dtype": "float32"}, {"name": "expanded_conv_7/depthwise/BatchNorm/moving_mean", "shape": [144], "dtype": "float32"}, {"name": "expanded_conv_7/depthwise/BatchNorm/moving_variance", "shape": [144], "dtype": "float32"}, {"name": "expanded_conv_7/project/kernel", "shape": [1, 1, 144, 48], "dtype": "float32"}, {"name": "expanded_conv_7/project/BatchNorm/gamma", "shape": [48], "dtype": "float32"}, {"name": "expanded_conv_7/project/BatchNorm/beta", "shape": [48], "dtype": "float32"}, {"name": "expanded_conv_7/project/BatchNorm/moving_mean", "shape": [48], "dtype": "float32"}, {"name": "expanded_conv_7/project/BatchNorm/moving_variance", "shape": [48], "dtype": "float32"}, {"name": "expanded_conv_8/expand/kernel", "shape": [1, 1, 48, 288], "dtype": "float32"}, {"name": "expanded_conv_8/expand/BatchNorm/gamma", "shape": [288], "dtype": "float32"}, {"name": "expanded_conv_8/expand/BatchNorm/beta", "shape": [288], "dtype": "float32"}, {"name": "expanded_conv_8/expand/BatchNorm/moving_mean", "shape": [288], "dtype": "float32"}, {"name": "expanded_conv_8/expand/BatchNorm/moving_variance", "shape": [288], "dtype": "float32"}, {"name": "expanded_conv_8/depthwise/depthwise_kernel", "shape": [3, 3, 288, 1], "dtype": "float32"}, {"name": "expanded_conv_8/depthwise/BatchNorm/gamma", "shape": [288], "dtype": "float32"}, {"name": "expanded_conv_8/depthwise/BatchNorm/beta", "shape": [288], "dtype": "float32"}, {"name": "expanded_conv_8/depthwise/BatchNorm/moving_mean", "shape": [288], "dtype": "float32"}, {"name": "expanded_conv_8/depthwise/BatchNorm/moving_variance", "shape": [288], "dtype": "float32"}, {"name": "expanded_conv_8/project/kernel", "shape": [1, 1, 288, 96], "dtype": "float32"}, {"name": "expanded_conv_8/project/BatchNorm/gamma", "shape": [96], "dtype": "float32"}, {"name": "expanded_conv_8/project/BatchNorm/beta", "shape": [96], "dtype": "float32"}, {"name": "expanded_conv_8/project/BatchNorm/moving_mean", "shape": [96], "dtype": "float32"}, {"name": "expanded_conv_8/project/BatchNorm/moving_variance", "shape": [96], "dtype": "float32"}, {"name": "expanded_conv_9/expand/kernel", "shape": [1, 1, 96, 576], "dtype": "float32"}, {"name": "expanded_conv_9/expand/BatchNorm/moving_mean", "shape": [576], "dtype": "float32"}, {"name": "expanded_conv_9/expand/BatchNorm/moving_variance", "shape": [576], "dtype": "float32"}, {"name": "expanded_conv_9/depthwise/BatchNorm/moving_mean", "shape": [576], "dtype": "float32"}, {"name": "expanded_conv_9/depthwise/BatchNorm/moving_variance", "shape": [576], "dtype": "float32"}, {"name": "expanded_conv_9/project/BatchNorm/moving_mean", "shape": [96], "dtype": "float32"}, {"name": "expanded_conv_9/project/BatchNorm/moving_variance", "shape": [96], "dtype": "float32"}, {"name": "expanded_conv_10/expand/BatchNorm/moving_mean", "shape": [576], "dtype": "float32"}, {"name": "expanded_conv_10/expand/BatchNorm/moving_variance", "shape": [576], "dtype": "float32"}, {"name": "expanded_conv_10/depthwise/BatchNorm/moving_mean", "shape": [576], "dtype": "float32"}, {"name": "expanded_conv_10/depthwise/BatchNorm/moving_variance", "shape": [576], "dtype": "float32"}, {"name": "expanded_conv_10/project/BatchNorm/moving_mean", "shape": [96], "dtype": "float32"}, {"name": "expanded_conv_10/project/BatchNorm/moving_variance", "shape": [96], "dtype": "float32"}, {"name": "Conv_1/BatchNorm/moving_mean", "shape": [576], "dtype": "float32"}, {"name": "Conv_1/BatchNorm/moving_variance", "shape": [576], "dtype": "float32"}, {"name": "dense_64/kernel", "shape": [576, 64], "dtype": "float32"}, {"name": "dense_64/bias", "shape": [64], "dtype": "float32"}, {"name": "output/kernel", "shape": [64, 1], "dtype": "float32"}, {"name": "output/bias", "shape": [1], "dtype": "float32"}]}]}